…
def happyModel():
    model = tf.keras.Sequential(
        [
            ## ZeroPadding2D with padding 3, input shape of 64 x 64 x 3
            tf.keras.layers.ZeroPadding2D(padding=(3,3), 
                         input_shape=(64, 64, 3), data_format=""channels_last""),
           ....
           ....


happy_model = happyModel()
happy_model.summary()
Model: ""sequential_2""
_________________________________________________________________
Layer (type)                 Output Shape              Param #   
=================================================================
zero_padding2d_4 (ZeroPaddin (None, 70, 70, 3)         0         
_________________________________________________________________
conv0 (Conv2D)               (None, 64, 64, 32)        4736      
_________________________________________________________________
bn0 (BatchNormalization)     (None, 64, 64, 32)        128       
_________________________________________________________________
activation_2 (Activation)    (None, 64, 64, 32)        0         
_________________________________________________________________
max_pool0 (MaxPooling2D)     (None, 32, 32, 32)        0         
_________________________________________________________________
flatten_16 (Flatten)         (None, 32768)             0         
_________________________________________________________________
fc (Dense)                   (None, 1)                 32769     
=================================================================
Total params: 37,633
Trainable params: 37,569
Non-trainable params: 64

",tensorflow
how to clean images to use with a mnist trained model,"I am creating a machine learning model for classifying images of numbers. I have trained the model using Tensorflow and Keras using the inbuilt tf.keras.datasets.mnist dataset. The model w
…
# add a final dense layer
output = layers.Dense(10*10, activation='sigmoid')(merged)
output = layers.Reshape((10,10))(output)

# create the model
model = models.Model(input_image, output)

model.compile(optimizer='rmsprop', loss='binary_crossentropy')
model.summary()

Model summary:
__________________________________________________________________________________________________
Layer (type)                    Output Shape         Param #     Connected to                     
==================================================================================================
input_1 (InputLayer)            (None, 10, 10, 1)    0                                            
__________________________________________________________________________________________________
conv2d_1 (Conv2D)               (None, 8, 8, 32)     320         input_1[0][0]                    
__________________________________________________________________________________________________
max_pooling2d_1 (MaxPooling2D)  (None, 4, 4, 32)     0           conv2d_1[0][0]                   
__________________________________________________________________________________________________
flatten_1 (Flatten)             (None, 100)          0           input_1[0][0]                    
__________________________________________________________________________________________________
conv2d_2 (Conv2D)               (None, 2, 2, 64)     18496       max_pooling2d_1[0][0]            
__________________________________________________________________________________________________
dense_1 (Dense)                 (None, 64)           6464        flatten_1[0][0]                  
__________________________________________________________________________________________________
max_pooling2d_2 (MaxPooling2D)  (None, 1, 1, 64)     0           conv2d_2[0][0]                   
__________________________________________________________________________________________________
dense_2 (Dense)                 (None, 32)           2080        dense_1[0][0]                    
__________________________________________________________________________________________________
flatten_2 (Flatten)             (None, 64)           0           max_pooling2d_2[0][0]            
__________________________________________________________________________________________________
concatenate_1 (Concatenate)     (None, 96)           0           dense_2[0][0]                    
                                                                 flatten_2[0][0]                  
__________________________________________________________________________________________________
dense_3 (Dense)                 (None, 100)          9700        concatenate_1[0][0]              
__________________________________________________________________________________________________
reshape_1 (Reshape)             (None, 10, 10)       0           dense_3[0][0]                    
==================================================================================================
Total params: 37,060
Trainable params: 37,060
Non-trainable params: 0
__________________________________________________________________________________________________

Note that this is one way of achieving what you are looking for and it may or may not 
…
  layer_flatten() %>%
  layer_dense(units=100, activation=""relu"") %>%
  layer_dropout(rate=0.2) %>%
  layer_dense(units=1, activation=""linear"")

model %>% compile(
  loss = ""mse"",
  optimizer =  ""adam"", #'sgd' can also be used
  metrics = list(""mean_absolute_error"")
)

model %>% summary()
#> Model: ""sequential""
#> ________________________________________________________________________________
#> Layer (type)                        Output Shape                    Param #     
#> ================================================================================
#> conv1d_1 (Conv1D)                   (None, 10, 32)                  160         
#> ________________________________________________________________________________
#> max_pooling1d_1 (MaxPooling1D)      (None, 5, 32)                   0           
#> ________________________________________________________________________________
#> conv1d (Conv1D)                     (None, 4, 64)                   4160        
#> ________________________________________________________________________________
#> max_pooling1d (MaxPooling1D)        (None, 2, 64)                   0           
#> ________________________________________________________________________________
#> dropout_1 (Dropout)                 (None, 2, 64)                   0           
#> ________________________________________________________________________________
#> flatten (Flatten)                   (None, 128)                     0           
#> ________________________________________________________________________________
#> dense_1 (Dense)                     (None, 100)                     12900       
#> ________________________________________________________________________________
#> dropout (Dropout)                   (None, 100)                     0           
#> ________________________________________________________________________________
#> dense (Dense)                       (None, 1)                       101         
#> ================================================================================
#> Total params: 17,321
#> Trainable params: 17,321
#> Non-trainable params: 0
#> ________________________________________________________________________________

history <- model %>% fit(dataTrain_x, dataTrain_y, 
                         epochs = 100, batch_size = 50, 
                         #callbacks = callback_tensorboard(""logs/run_a""),
…
