…
  layer_flatten() %>%
  layer_dense(units=100, activation=""relu"") %>%
  layer_dropout(rate=0.2) %>%
  layer_dense(units=1, activation=""linear"")

model %>% compile(
  loss = ""mse"",
  optimizer =  ""adam"", #'sgd' can also be used
  metrics = list(""mean_absolute_error"")
)

model %>% summary()
#> Model: ""sequential""
#> ________________________________________________________________________________
#> Layer (type)                        Output Shape                    Param #     
#> ================================================================================
#> conv1d_1 (Conv1D)                   (None, 10, 32)                  160         
#> ________________________________________________________________________________
#> max_pooling1d_1 (MaxPooling1D)      (None, 5, 32)                   0           
#> ________________________________________________________________________________
#> conv1d (Conv1D)                     (None, 4, 64)                   4160        
#> ________________________________________________________________________________
#> max_pooling1d (MaxPooling1D)        (None, 2, 64)                   0           
#> ________________________________________________________________________________
#> dropout_1 (Dropout)                 (None, 2, 64)                   0           
#> ________________________________________________________________________________
#> flatten (Flatten)                   (None, 128)                     0           
#> ________________________________________________________________________________
#> dense_1 (Dense)                     (None, 100)                     12900       
#> ________________________________________________________________________________
#> dropout (Dropout)                   (None, 100)                     0           
#> ________________________________________________________________________________
#> dense (Dense)                       (None, 1)                       101         
#> ================================================================================
#> Total params: 17,321
#> Trainable params: 17,321
#> Non-trainable params: 0
#> ________________________________________________________________________________

history <- model %>% fit(dataTrain_x, dataTrain_y, 
                         epochs = 100, batch_size = 50, 
                         #callbacks = callback_tensorboard(""logs/run_a""),
…
