…
def happyModel():
    model = tf.keras.Sequential(
        [
            ## ZeroPadding2D with padding 3, input shape of 64 x 64 x 3
            tf.keras.layers.ZeroPadding2D(padding=(3,3), 
                         input_shape=(64, 64, 3), data_format=""channels_last""),
           ....
           ....


happy_model = happyModel()
happy_model.summary()
Model: ""sequential_2""
_________________________________________________________________
Layer (type)                 Output Shape              Param #   
=================================================================
zero_padding2d_4 (ZeroPaddin (None, 70, 70, 3)         0         
_________________________________________________________________
conv0 (Conv2D)               (None, 64, 64, 32)        4736      
_________________________________________________________________
bn0 (BatchNormalization)     (None, 64, 64, 32)        128       
_________________________________________________________________
activation_2 (Activation)    (None, 64, 64, 32)        0         
_________________________________________________________________
max_pool0 (MaxPooling2D)     (None, 32, 32, 32)        0         
_________________________________________________________________
flatten_16 (Flatten)         (None, 32768)             0         
_________________________________________________________________
fc (Dense)                   (None, 1)                 32769     
=================================================================
Total params: 37,633
Trainable params: 37,569
Non-trainable params: 64

",tensorflow
break out of while loop that has an array inside,"Want to let the user make an array until they press cancel on the prompt
But the nested if statement won't trigger and break the while loop.
The goal of the program is to show the first ten items in the array with the message
…
